app/models/voice/voice_model.pt (torch, 16369 bytes, 7 tensors)

fc1.weight f4 [64, 10]
00000000: 7a51 ed3c 1bc0 973c 91d6 a03e c840 86be
00000010: d03a 9b3e a309 7b3e b9f2 2a3d d377 c13d
00000020: d6cf fb3d 118a 7cbe 4959 22be dec4 a73e
00000030: ded6 653e 20b9 d0bd 94a2 c7bd 5057 783d
00000040: 4682 0d3e 51ca 4abe 7822 eebc db32 edbe
00000050: d906 1abe a5ac 80be 3eea 6c3e 0022 9bba
00000060: 6d60 59be 9c3c 0a3c f501 1ebd 0423 57be
00000070: a0c8 9d3b 84ff c0be 11b9 0d3e d476 c33d
00000080: 679c 903e 4a02 9bbe fa90 7cbc 96ec 4a3e
00000090: 3134 8b3e bb3c cebe fe99 043e e5f3 b5be
000000a0: 6b32 733e d415 023e dfa2 9e3e e8b6 89bd
000000b0: 20aa 8fbe f7c4 44be cf4d 963e 863e 36be
000000c0: 9e6d 3bbe 65a8 a1b9 c266 c0bd e3ee 943d
000000d0: 76cf 223e 113e 22be 2b64 ab3e ed08 e53d
000000e0: 6e49 87be 1f82 8e3d 777c 213d 0ebe 70be
000000f0: 1787 a03e 49ee 7bbe c27d 56be 58c7 0ebe
00000100: a628 63be 83ab 64bd 1f59 753d f679 92bd
00000110: 06eb 223d df72 853e 4938 a3be 26c3 b73e
00000120: 2e44 6fbe 1da9 8a3e 2637 623e 22d9 debe
00000130: b96a 0fbc bd99 f53d f166 3f3d 1042 87be
00000140: 21cd 5e3e c5cb 59be e066 b1bc 00bb c2ba
00000150: 9f4b fdbd d5b3 5f3e 63e2 253c 2b25 f63c
00000160: fa92 4c3d b9eb ce3e 76cf 513c 7eee 2abe
00000170: f8d0 36be b005 72be de68 27be bc2e b9ba
00000180: b147 123d 4ed9 133d a6ec 6cbe b8bb febe
00000190: 53ef b8be ca88 243e ce39 793e 93e0 9e3e
000001a0: 71f6 e0bd 18ea 2ebe 21b1 4a3d 5baf 02be
000001b0: b57c 45be e067 9a3d 9440 9fbe d41d 833e
000001c0: 8e97 733e d39c 803e 1a18 bc3b cca5 27be
000001d0: d7c0 b5bd ab17 6a3e e36a a23a 3b62 9bbe
000001e0: 44d2 a2be 73b6 6e3d 2a45 46be 94a9 e5bd
000001f0: 241d 153d e686 adbe aed0 d0bc ef22 d8bd
00000200: 80ab 8f3d 4eba 73be dad3 8dbe fb8c 8b3e
00000210: 7c36 86bd e623 4e3e 62f8 fdbd 1038 7d3d
00000220: 9035 263d 8d17 5dbd 6573 e7bc dfc2 ecbe
00000230: 52d9 a9be 18e4 8ebd 99b7 4cbe 4a30 4e3e
00000240: 0d3c b7bd 8b24 06bd 7453 19be dcb4 e0bd
00000250: 95ec 673d 5ea1 d2be 49f2 2e3e 64c3 4a3d
00000260: 7202 203e 30b7 8abe df3c b93d 3b7d c5be
00000270: fe5c 5e3e 5017 e63d fae3 21bd dc98 98be
00000280: a00c 273e 384c 9abe 6fe5 8dbe a19d 24be
00000290: 1e13 78be 449d d4bc 286e 873e aa3b 07be
000002a0: 335e 5fbe 3577 b23e acb1 ee3b 8c24 45be
000002b0: 201e 69bc d415 dc3d 4bb9 ffbd 604c ddbd
000002c0: 4333 343d 6ef1 5cbe 85ae 473d 2ebf f0be
000002d0: 0f88 023e 4b9a 9cbd 04fb 86bd b314 9bbe
000002e0: d02f 17be 15cc 28be e8f9 8ebe 6edd 36be
000002f0: 5d86 f0bd aeb6 813e f261 c13c fb32 c33d
00000300: 705b 4fbe 3ca4 90bd 773f 7d3e 51a8 4a3e
00000310: d48d 85bc 8bfb 743e 0e29 893d 10ca cbbd
00000320: 7683 a1bd 4740 153e e038 f6bc 321f 93be
00000330: 6318 2e3e 5179 96be eb10 773d c500 c4bd
00000340: 5649 4ebe d3f6 acbe 6cc2 11be 44b3 f53d
00000350: 780e 2e3d 5833 60bd 1b05 ca3e 01aa 573e
00000360: a155 8cbd fe6a 4fbe 6a2c 5bbe c56c d03d
00000370: 65c1 cfbe 7c02 b73e 2183 8c3e 69a8 84be
00000380: 50aa 30be 79e2 e83d 6a75 023e a6b6 86be
00000390: bbf1 5b3e 797a 74be d7ab 02be aa1e 30be
000003a0: 42c4 cbbd 4281 e1bd 6c7d be3e 63c5 f6bd
000003b0: a183 ccbe 13d3 3b3e 7ca3 233d b1de e33d
000003c0: 0ee3 393e aaf2 39be c641 90be 9fbc 39be
000003d0: b33d 20bd ca4a 063e 65d8 023c 5451 823d
000003e0: dae4 d13b a644 363e a374 803e c3ae 91be
000003f0: 06b3 f1bd 7aa7 2b3e b81b b53d 932c 813d
0.028969515 0.01852422 0.314137 -0.262213 0.30318308 0.24515395 0.041735385 0.09446683
0.12295501 -0.24662043 -0.15854372 0.32767385 0.22445247 -0.1019156 -0.09747806 0.060630143
0.13819227 -0.1980374 -0.02906917 -0.46327862 -0.15041675 -0.25131717 0.23136231 -0.0011835694
-0.2122819 0.008437302 -0.038576085 -0.21009451 0.004815176 -0.37694943 0.13840128 0.09544149
0.28244326 -0.30275184 -0.0154154245 0.19816813 0.27188256 -0.4028071 0.12949368 -0.3553764
0.23749702 0.1270364 0.30983636 -0.0672434 -0.28059483 -0.19215761 0.29356238 -0.17797288
-0.18303534 -0.00030833777 -0.093945995 0.072721265 0.15899453 -0.15843989 0.3347486 0.11183343
-0.2642321 0.069584124 0.03942534 -0.2351 0.31353065 -0.24602617 -0.2094641 -0.13943231
-0.22183475 -0.05582763 0.059899446 -0.071521685 0.039774917 0.26064202 -0.3187888 0.35891074
-0.23365852 0.27082148 0.2209135 -0.43525034 -0.008753472 0.11992214 0.046729032 -0.2641759
0.21757938 -0.21269138 -0.0216555 -0.0014856756 -0.12367939 0.21845944 0.010124776 0.03004702
0.049944855 0.40414217 0.01280581 -0.1669254 -0.17853153 -0.23634982 -0.16348597 -0.0014128308
0.0357129 0.03609591 -0.23137149 -0.49752593 -0.3612009 0.16067806 0.24338457 0.31030712
-0.10984505 -0.17081487 0.04948533 -0.12762205 -0.19285853 0.07539344 -0.31103957 0.25608695
0.23788282 0.25119647 0.005740178 -0.1637184 -0.08874672 0.22860591 0.0012391474 -0.3034838
-0.31801045 0.058279466 -0.19362321 -0.11213985 0.036404744 -0.33891982 -0.025490131 -0.10553538
0.07015133 -0.23801538 -0.27700692 0.27255997 -0.06553361 0.20130882 -0.12400891 0.061821043
0.040578425 -0.053977538 -0.028253267 -0.46242425 -0.33173615 -0.06977099 -0.19991912 0.20135608
-0.08947001 -0.032749694 -0.14973241 -0.10971996 0.056622107 -0.41138738 0.17084612 0.049502745
0.15625933 -0.27092886 0.09044813 -0.38572106 0.21715161 0.11234915 -0.039524056 -0.29804122
0.1631341 -0.30136275 -0.27714106 -0.16075756 -0.24226043 -0.025953896 0.2645123 -0.13206354
-0.21813278 0.34856573 0.0072843637 -0.19252223 -0.014228374 0.10746351 -0.12486514 -0.10805583
0.0439942 -0.21576473 0.04875042 -0.4702086 0.12747215 -0.076466165 -0.06590846 -0.3028923
-0.14764333 -0.16484101 -0.27925038 -0.17857906 -0.11744378 0.25334686 0.023606274 0.09531208
-0.20249724 -0.07062575 0.24731241 0.1979077 -0.01630298 0.23924081 0.06697284 -0.0995065
-0.07886402 0.14575301 -0.030056417 -0.28734738 0.1700149 -0.29389432 0.06031887 -0.09570459
-0.20145163 -0.33782062 -0.14234322 0.11997083 0.042494267 -0.054736465 0.3945702 0.21060945
-0.0685227 -0.20255658 -0.21403661 0.10176996 -0.40577236 0.35744083 0.27443793 -0.25909737
-0.17252469 0.11371321 0.12740102 -0.26311225 0.21478932 -0.23874845 -0.12760864 -0.17199197
-0.099495426 -0.11010982 0.37205064 -0.12049367 -0.39944175 0.18342237 0.039950833 0.111264594
0.1815302 -0.18158975 -0.2817518 -0.1813836 -0.03912134 0.13114467 0.007986163 0.06363168
0.006405455 0.17799625 0.25088987 -0.28453645 -0.11801724 0.16763106 0.088431776 0.0630733

fc1.bias f4 [64]
00000000: b902 9d3e b9ef 2b3e 525c 403c 8f00 85be
00000010: 341a 853e cf4b a43e dd43 4b3e 79aa fcbc
00000020: 35bc b73e 9f42 5abe 146c 9d3e 24bb 233c
00000030: a5d9 2b3e 62c9 84bd f70a ed3c 9f4e e6bb
00000040: 9e04 ecbd 5164 2ebe ede5 e8bd 853c 4e3e
00000050: 2475 ccbd 88b6 683e 283c 3e3d 1df0 1abe
00000060: 8e07 503e 65ef 4c3d 6d2c 3dbe 49ff a53d
00000070: 6236 bfbc bec5 3fbe bdd9 383e 56ba 57be
00000080: a2fe 8dbc 437b b8bd fe9e 33be f194 17bd
00000090: aa57 f33d cac4 5cbe 727e 743e 3b10 10be
000000a0: 9532 9c3e 3123 86be d2ae b1bd 5ad3 8f3e
000000b0: 95cd 83bc 5f89 15bd 595a e33d 8657 03be
000000c0: 6f1c a63e 58a6 4fbe 96e5 2fbe 966c 7abe
000000d0: 6736 1d3e eee4 763d 2fac 943d fdaf 7c3e
000000e0: 51be 593e 9f4b 263c 3a5d 4dbc 5ea9 82bb
000000f0: 2908 973d 5b74 86bd 03ba 853e 4ff6 98bd
0.3066614 0.16790666 0.011740761 -0.2597699 0.25996554 0.32089087 0.19850107 -0.030843006
0.35885778 -0.21314476 0.3074652 0.009993348 0.16782244 -0.06483723 0.028935893 -0.0070284153
-0.11524318 -0.17030455 -0.1137198 0.20140274 -0.0998328 0.2272588 0.04644409 -0.15130658
0.20315382 0.050032992 -0.18473978 0.081053324 -0.023341361 -0.18727776 0.1805181 -0.21067175
-0.017333332 -0.09007885 -0.1754112 -0.037007276 0.11881955 -0.21559444 0.2387636 -0.14068691
0.3050734 -0.26198724 -0.086759225 0.28090936 -0.01608924 -0.03650796 0.11101217 -0.12826356
0.32443568 -0.20278299 -0.17177424 -0.24455485 0.15352784 0.060276918 0.07259404 0.24676509
0.21264006 0.010149865 -0.012534434 -0.0039874753 0.07374603 -0.06565162 0.26118478 -0.07468855

fc2.weight f4 [32, 64]
00000000: c850 0d3c 5180 9a3c 8bae ed3d 46c2 fb39
00000010: 5ad4 e53d 4f86 df3d 0112 ebbc 2cdb ad3d
00000020: 6e02 8bbd 5b18 743e f4ef acbd 90db 883c
00000030: 789b 333e 390f 7c3d 6d20 7a3d efc0 313b
00000040: 34ae 21bd d450 3f3e 5fda 9bbc eaf1 5d3d
00000050: daf1 683d ba82 d53d 0f05 183e 5c31 ab3c
00000060: dc35 0bbe ad1d afbd 1f6d 37be 4640 38bd
00000070: 03f5 b93c 1ae6 173e 39f5 06be 4756 ce3d
00000080: 7327 683e 4110 37bd 42f2 143d 8208 8cbe
00000090: 36b2 4c3d 322a de3d 834a da3d c1c2 43be
000000a0: c6a0 483d 7b2a 8d3d 7909 9dbd 7205 adbc
000000b0: 482e 123e 99f7 2fbe ba68 483e aba2 123c
000000c0: ecfb b3bc 0160 7c3e 4653 a0bd 414b 07be
000000d0: dacd 3c3d e752 f43d 6e74 913d 4baf bb3d
000000e0: 5872 88bb 4a85 e5bc 5ec4 3d3d 1801 33be
000000f0: caf5 e9bd 0fde 77be 7edf a8bd d41c f83d
00000100: 1f09 24be 1f30 f2bd 96f0 82ba 4e61 d83c
00000110: 02a1 4dbd 9058 10be fd28 a13d 9fc8 27bc
00000120: 515b 6cbd 1986 cb3c 82fb 253d 52c1 12be
00000130: cff1 203b b2d8 623c e516 b03d 30a4 fabb
00000140: b06a 93bd 8e38 91bd dc95 753d b233 6cbd
00000150: f012 5ebd 7306 3b3d 5ea1 a8bd 5454 24be
00000160: f100 803d 8fbf aabd 01f1 373d 6dff 3a3d
00000170: 731e 033d 6170 99bd 701d df3d e093 093e
00000180: b083 b1bd 4505 2bbd b5f4 d1bd 1135 303d
00000190: b07e 29bd 1101 9fbd 24bb 54bd 9c76 2abd
000001a0: 9b78 11be 1d25 e63c a840 4d3d ff36 ee3c
000001b0: b804 6abb 7541 d1bb 4f7a 50bc 956d d8bd
000001c0: 0ae6 843d 2768 ea3c 8696 dd3b 2cdf 873d
000001d0: aeca 99bd ab2a 00be 9081 07be 193a 39bd
000001e0: febb 3b3d 13aa 9abd f49d 833b 7a7e b9bc
000001f0: 5af1 983d 7c01 32bd 426e 0cbd c802 1bbe
00000200: 5e69 0d3d 9bd6 7abc 0a54 333e b32b 033e
00000210: 202f 2e3d ff4d babb 16df 8a3d e518 a13d
00000220: 986a 68be e9a3 e23d 95d8 073d 556e 523d
00000230: eae3 253e 04da 263e e3a4 8dbc edd5 2b3e
00000240: 87a3 f9bd b3d6 183e 4028 813c 549b e43a
00000250: ddc6 843d d33e 9a3d 5208 2b3e 773d 993c
00000260: ecc8 d9bd fa97 20be c7b6 69bd 787f 85bd
00000270: eae7 aa3c 91f6 263e 18f2 a03c 0d92 96bc
00000280: bebc 963d 95ed 81bd f98c 8c3d fd94 48be
00000290: 64d4 ebbc 4ff7 3d3e b3a3 7a3d be17 d6bd
000002a0: d74d 48bd 6136 9f3d 44e2 80bd 0d51 863c
000002b0: 64f5 133e 3271 d4bd 82bd 353e e6cb 143d
000002c0: 3f74 9dbc 1f37 083e 04c4 9dbd c89a 0bbe
000002d0: f499 8bbc 0683 023e 9007 cd3d fbf1 653d
000002e0: 799e 273d ac3f 32be 2de8 023e b050 4b3d
000002f0: ce05 71be 14b8 44be c7e8 a2bc bb7c 293d
00000300: 7285 ce3c e372 383e 63fd 55bb 1ec1 413e
00000310: 23f6 203d 54f4 2e3d d619 07be 2efa 323e
00000320: 1b2b afbd 9bc3 123e e78a 9b3d 1c45 0e3e
00000330: 614d 1f3d d123 913e 520c 053e c5da 193e
00000340: a266 a8bd feb5 963c bf4c 26be 9de5 6fbc
00000350: 5735 5e3e ba8a 0a3d 83c0 313e 3ae5 0b3e
00000360: 05cf 77bd fd56 87bb 461f 11bd 64e0 81bc
00000370: 3c34 093d dea2 eb3b 79f6 b2bc 89bf 833e
00000380: 37fd 573e 0597 003d c064 c93d c45e eebd
00000390: 9fc0 833d d2e9 653d c14f 923d 9274 913c
000003a0: 1ded d8bb bc69 1d3d f475 ebbc 9c6b 23bd
000003b0: 69ad 7f3d b8c2 84bd 89eb b63c c1bf 9e3d
000003c0: 0fe1 183d ddd7 223e 426a 7b3d ca0f e2bd
000003d0: 02f2 f0bc 15d4 1ebd 7360 ecbc d1fd d5bc
000003e0: f507 103d ef8b 19be bfa3 473d b149 02be
000003f0: c28b 06be 8acf f3bd 34ba 64bd 5660 303e
0.008625217 0.018860014 0.11605557 0.00048019196 0.112221435 0.10914289 -0.028695108 0.08489069
-0.06787573 0.23837416 -0.08444205 0.016706258 0.17539775 0.061537955 0.06106608 0.0027123054
-0.039472774 0.18683177 -0.019025026 0.054185785 0.056871273 0.10425325 0.1484568 0.02089756
-0.13594764 -0.08550582 -0.1791272 -0.04498317 0.022699839 0.1483387 -0.13179483 0.1007505
0.22671299 -0.044693235 0.036363848 -0.2735024 0.049974643 0.10847892 0.10658743 -0.19117261
0.04898145 0.06892868 -0.076678224 -0.02112076 0.14275467 -0.17184295 0.195712 0.008949916
-0.021970712 0.24645998 -0.07828383 -0.13212301 0.046094753 0.11929875 0.07102285 0.09164294
-0.0041640215 -0.028017659 0.04632985 -0.17480886 -0.11423834 -0.24205802 -0.08245753 0.121148735
-0.16019104 -0.118255846 -0.0009989913 0.026413586 -0.050202377 -0.14096284 0.07869146 -0.010240703
-0.057704274 0.024844216 0.04052306 -0.14331558 0.0024558192 0.0138456095 0.08598117 -0.007648967
-0.071980834 -0.07090865 0.05995737 -0.057666488 -0.05421728 0.045660447 -0.08233903 -0.16047794
0.062501796 -0.08337318 0.044907574 0.04565375 0.03201146 -0.07492138 0.10894287 0.13435316
-0.086676955 -0.041753072 -0.10251752 0.043019358 -0.041380584 -0.07763875 -0.051936284 -0.04161702
-0.14206164 0.028093869 0.05011049 0.029078959 -0.003570838 -0.006385977 -0.012724473 -0.10567776
0.06489189 0.028614117 0.0067623286 0.066343635 -0.07509361 -0.12516277 -0.13233018 -0.045221422
0.04583358 -0.0755197 0.004016632 -0.022643317 0.07467909 -0.043458447 -0.034284838 -0.1513778
0.034524314 -0.015309955 0.17512527 0.12809639 0.04252541 -0.0056855674 0.067808315 0.078660764
-0.22696912 0.1106642 0.033165533 0.051374752 0.16200224 0.16294104 -0.017290538 0.16780825
-0.121893935 0.14925651 0.015766263 0.0017441311 0.06483243 0.07531514 0.16702393 0.018706067
-0.10634026 -0.15682974 -0.057059076 -0.06518453 0.020862538 0.16304995 0.01964669 -0.01838019
0.073602185 -0.06344143 0.06862826 -0.19588085 -0.0287878 0.18551372 0.061191272 -0.10453747
-0.04890236 0.07774044 -0.06293157 0.01639607 0.14449078 -0.10373153 0.17748073 0.036327265
-0.01922047 0.13302277 -0.07703403 -0.13633263 -0.017041184 0.12745294 0.10011208 0.056138974
0.040922616 -0.17407101 0.1278388 0.049637496 -0.2353737 -0.19210845 -0.019886388 0.041378718
0.025210116 0.18012576 -0.003265225 0.18921325 0.039297234 0.04271348 -0.1319345 0.17478248
-0.085531436 0.1433243 0.07594853 0.1389355 0.038892154 0.28347638 0.12992981 0.1502486
-0.08222701 0.018397328 -0.16240214 -0.014642146 0.21700035 0.033823706 0.17358594 0.13661662
-0.060500164 -0.004130243 -0.035430215 -0.015854068 0.03349708 0.007191046 -0.021846043 0.25732067
0.21092688 0.031394023 0.0983367 -0.11639169 0.06433224 0.05613119 0.07144118 0.01775578
-0.006620063 0.038430914 -0.028742768 -0.039897546 0.062421236 -0.06482452 0.022329109 0.07751418
0.037324008 0.15902658 0.061380632 -0.11038168 -0.029412273 -0.038776476 -0.028854584 -0.026122006
0.03516384 -0.14994787 0.048740145 -0.12723424 -0.13139251 -0.11904819 -0.05584164 0.17224249

fc2.bias f4 [32]
00000000: eb24 4fbd b408 2b3d f06c b8bc 3964 c9bd
00000010: 83aa 013e cab0 ebbd 3e8f 4a3e ab6d 8ebc
00000020: b9d3 78bc 8e25 a93d 0d84 813c e75d 3b3d
00000030: 97bc 8cbd fd9d 8d3d 89c3 643c 9efc 8bbd
00000040: faad 213d 2aec 993d 9eac 83be c8f1 893d
00000050: d274 3a3e 4249 45bd 21a9 b9bd a1b7 db3c
00000060: df8c 153d 84f6 2ebc 4185 70bd 3fc7 543d
00000070: 7391 213d 7489 623e 8967 96bc d615 91bd
-0.050572317 0.041756347 -0.022512883 -0.09833569 0.12662701 -0.11508329 0.19781205 -0.017386278
-0.015187197 0.08259116 0.015810037 0.04574385 -0.06871908 0.069148995 0.013962635 -0.06835292
0.039472558 0.07515748 -0.25717634 0.06735569 0.18208626 -0.048165567 -0.09065462 0.02682096
0.0365113 -0.010678891 -0.05872083 0.05194783 0.03944535 0.22122747 -0.018359916 -0.07084243

fc3.weight f4 [16, 32]
00000000: 80d4 b03d a4ed f9bd 76b7 c63d e4bd 8c3c
00000010: df85 07be de8d c63e a920 63be 7479 ca3c
00000020: cac9 45bc 21be 273d de7e 2d3e 3fc3 8f3e
00000030: bf78 6c3e e44b 34bd ed90 9dbd a048 f23d
00000040: d410 40bd e7d1 643e 99aa 303e 2944 4abc
00000050: dfc6 923e 8282 4e3d 2174 203d c754 c4bc
00000060: 402f 22bd fcd2 3bbd 111a 2a3e 97d9 c9bd
00000070: 1e8f c63c 6ae2 98bd 0371 7c3d a891 753e
00000080: 0246 633e af7f ccbd a5b0 433e 7444 6e3d
00000090: a63d a1bd 9ce9 ef3d ddb1 1ebe 6118 e3bd
000000a0: 8f56 623c 6a98 5d3e f479 283d cc27 ad3d
000000b0: eaac bb3d b19c 4c3d 4a61 49be 22bc 9e3d
000000c0: 5893 c43d 933d 94bd 4c28 4e3b 9e28 63bc
000000d0: 5bc7 653e c361 383e 6e90 893e 29ee 89bd
000000e0: 1558 98bd a7a6 133d 88d8 0fbb bb55 c8bd
000000f0: 9035 72be 96d4 48be 0455 603d ec9e 6c3e
00000100: fd3d 2ebd fcfe c7bd 8948 3bbd 093f 94bd
00000110: d393 f43d dc99 4bbe 376c 863d 2da5 e83d
00000120: 49b2 aa3d 822b 09be 3f3e 3bbe 3faa b8bd
00000130: c1e9 423d ed6b 3c3e a445 8ebc 9712 97bd
00000140: 1447 463e b220 2bbe b548 49be 6087 23bc
00000150: ef8e 0abb f640 03be 4042 acbd 5150 d5bb
00000160: 37d2 3b3e 471d 003e 3e71 23bb ba9d 043e
00000170: 639c d63c e922 2ebd 4f4c 7b3d 489d 313d
00000180: c8fc 993d 924a cd3d b0d6 31bc 3a08 ff3d
00000190: c889 c6bd 9d1f 963e ab03 c73c 9803 6dbb
000001a0: 47f5 d6bb 9883 9e3e f931 073d 9f55 593e
000001b0: 7fb5 a73d cede f0bd 3ba5 61be 2927 7c3e
000001c0: ae17 d9bc 6db1 923d 4886 073e 5cb0 59bd
000001d0: 2c8c 963e e6fe 133e bca6 553e 7eb1 1e3e
000001e0: a84b 83be 73cc 073e c382 913e 2cd5 4fbe
000001f0: b0e8 c8bd 74c7 71be d7c8 073e 53d2 a13e
00000200: 7604 4e3e 1b93 353e 7532 6e3e e550 d33d
00000210: 012c 2cbe 16fa 9b3d 395a 00be cb05 063e
00000220: ca63 3bbe 8dd2 4d3d 154f 563e 2081 e23d
00000230: b29c f83d eba1 d1bd 40b9 da3c 69e3 7e3e
00000240: b2db d7bb f821 ae3c f658 edba 25cb e43c
00000250: c681 873e 6a80 0cbc 8a4d 453e ac0d 403d
00000260: e7ab a5bd eadf 363e 7fc6 0c3d 9237 74bd
00000270: c09f 18bc 484b 7bbe 48a4 363e b814 ac39
00000280: d155 133d 60e4 613d e7e0 4bbc 4795 41be
00000290: e552 83bc 010a e9bd fda4 923e c13e 6c3e
000002a0: 57aa c33d 830c 353d 2f34 85be 42fa f8bc
000002b0: abd6 a3bc 9c4f 2c3e 2672 083d 19cf 9fbd
000002c0: 3a50 ccbc 5954 2cbe 90a5 a4be 8473 9d3d
000002d0: f499 303e 3b0f 27be cf44 13be 4baf c5bd
000002e0: 8e23 6f3d fac5 c63d 827f 44be 7a23 813e
000002f0: fc15 0d3b 3bc8 45bd 6e38 a83d 5ed4 a23d
00000300: bc09 433d a55f 223d abcd 943b 0b21 783c
00000310: 237f bf3d 8420 d5bd 2fac 3b3e 9f11 f2bc
00000320: 8466 7f3e ddf3 0dbe f616 90bd b181 f4bb
00000330: 2245 f33a 179f 703e 453a 063e 495c b2bd
00000340: aa92 913d e139 16bd 7e1f 79be 583a 153c
00000350: c51a 293e 9294 c83c 7051 27bd 31d5 1d3d
00000360: f50d 6f3e 0f44 413d b6e0 e1bd 597b 33bc
00000370: 17b5 3c3e 2270 863e abd8 1a3c 8d20 b53c
00000380: 3c51 7e3c 1846 88bc 68b9 cc3c cd7d 21be
00000390: 37c4 b13d 767a 3fbe 17ee 5d3d 5d90 f63d
000003a0: e8c7 2bbd e163 02be 56f5 49be 7e05 01bd
000003b0: 6085 9e3d b3cf 163e c1ce 723e ca2a 05be
000003c0: 6733 033e 1d05 bcbd cac0 38be 71e1 f93d
000003d0: fe29 7f3e 088b 19bd fde2 c5bd 933e 283d
000003e0: cc8e 4e3d ae5c 633d aee9 76be fc70 8c3e
000003f0: 6fd9 183c 580e 783d dd82 0e3d 30de 2bbd
0.08634281 -0.122035295 0.09702961 0.01718039 -0.13234662 0.3878011 -0.22180428 0.024716116
-0.012072036 0.040952805 0.16942927 0.28078648 0.23092936 -0.044017687 -0.07693658 0.11830258
-0.04689105 0.22345696 0.17252578 -0.012345352 0.28667352 0.05041743 0.03917325 -0.023966206
-0.039595842 -0.045855507 0.16611506 -0.09855955 0.024238165 -0.0746506 0.061631214 0.23981345
0.22194675 -0.09985291 0.19110353 0.05817075 -0.07873087 0.11714479 -0.15497537 -0.11088634
0.0138145825 0.21640173 0.04113193 0.08454856 0.0916384 0.04995412 -0.19666019 0.07750727
0.09598416 -0.07238307 0.0031457124 -0.013864664 0.2243933 0.18006043 0.26868004 -0.067348786
-0.07438675 0.036047604 -0.002194913 -0.09781977 -0.23653245 -0.19612345 0.054768577 0.23107499
-0.042539585 -0.09765431 -0.04572347 -0.072385855 0.11942258 -0.19882911 0.06563609 0.1135963
0.083347864 -0.13395503 -0.18285464 -0.09016847 0.047586206 0.18400545 -0.017367192 -0.073765926
0.19363052 -0.16711691 -0.19656642 -0.009981006 -0.0021142324 -0.1281775 -0.08411074 -0.0065098186
0.1834191 0.12511168 -0.0024939324 0.12950793 0.026197618 -0.04251376 0.06135207 0.043362886
0.07518917 0.10023989 -0.010854408 0.12452741 -0.096942484 0.29320994 0.024293741 -0.0036165472
-0.006560001 0.30959773 0.033006642 0.21224068 0.081889145 -0.117612466 -0.22035687 0.24624313
-0.02650055 0.071627475 0.13234818 -0.053146705 0.29403818 0.14452705 0.20864385 0.15497395
-0.2564366 0.13261585 0.28420076 -0.20296162 -0.098100066 -0.23611242 0.13260208 0.31605777
0.20118889 0.17731898 0.23261435 0.10318164 -0.16813661 0.076160595 -0.12534417 0.13088147
-0.18299785 0.050249625 0.20928605 0.11059785 0.12139262 -0.102359615 0.026699662 0.24891438
-0.006587469 0.021256432 -0.0018108177 0.027928898 0.26466197 -0.008575538 0.1926786 0.04688804
-0.080894284 0.17858854 0.034368988 -0.05962331 -0.009315431 -0.24540436 0.17836106 0.00032821833
0.035970513 0.055149436 -0.012443758 -0.18904601 -0.016030738 -0.11378861 0.286415 0.23070814
0.09553974 0.044201385 -0.26016375 -0.03039277 -0.019999823 0.16827244 0.033311985 -0.078031726
-0.024940599 -0.16829051 -0.32157564 0.076880485 0.17246228 -0.16314404 -0.14381717 -0.09652575
0.058383517 0.0970573 -0.19189265 0.2522238 0.0021527996 -0.048286658 0.08213888 0.07950662
0.047616705 0.039641995 0.004541119 0.015144597 0.09350421 -0.104065925 0.18327402 -0.029549418
0.2494145 -0.13862558 -0.070356295 -0.0074617495 0.0018560032 0.23498188 0.13108166 -0.08709008
0.07108052 -0.03667629 -0.2432842 0.0091081485 0.16514118 0.024484906 -0.04084915 0.038533393
0.23345168 0.047184046 -0.11029188 -0.010954701 0.18428455 0.26257426 0.009451072 0.022110248
0.0155222975 -0.016634986 0.024990752 -0.15770645 0.08680003 -0.18699059 0.05418214 0.12039254
-0.041938692 -0.12733413 -0.19722494 -0.03149938 0.07740283 0.14727668 0.23711683 -0.13004604
0.12812577 -0.09180663 -0.18042293 0.12201203 0.24918362 -0.037486106 -0.09662435 0.0410753
0.05042915 0.055508308 -0.24112579 0.2742995 0.009329184 0.060560554 0.03479277 -0.04195994

fc3.bias f4 [16]
00000000: 1aa7 a33c 185b fe3c ab34 563e 972a 463d
00000010: 8ea2 44bd a0da 5cba f1f6 e23c 07dc 5c3e
00000020: 2781 2f3e 2bd8 8d3d a329 1abb fd0a 693e
00000030: 2706 d43d fd27 0a3e 4701 783e 5347 943d
0.019977141 0.031049296 0.20918529 0.04838046 -0.048006587 -0.00084249116 0.027705641 0.21568309
0.17139111 0.069259964 -0.0023523353 0.22758098 0.10352736 0.13491817 0.24219237 0.072401665

fc4.weight f4 [1, 16]
00000000: beee 983e 0c3e bf3e 284f 91be d112 743e
00000010: e028 4f3e c7ae a2be 4c2f 69be 26d9 06be
00000020: 5410 a73e 740b 153e df16 40be 7e81 4abe
00000030: 92a6 9c3e 24e4 87be b07c a4be 21da babd
0.29869646 0.37352026 -0.28380704 0.23835303 0.20230436 -0.3177397 -0.22771949 -0.13168773
0.32629645 0.1455515 -0.18758725 -0.1977596 0.30595833 -0.26541245 -0.3212638 -0.09123636
