app/models/voice/voice_model.pt (torch, 13793 bytes, 5 tensors)

fc1.weight f4 [64, 8]
00000000: de9b babe 8382 abbe 1873 d6bc b38b 22bd
00000010: f381 b23e 6f27 5cbd b454 ce3e 956f 2fbd
00000020: ba4f dc3d 305b 5a3e e161 31be c4f5 27be
00000030: 0e9a bd3c b4fb e0be d5ea d43e d3d4 a7be
00000040: f205 c8be 8a04 01be 3f1a 353c 1f1f c93c
00000050: 5b88 3c3e 2cbc b5bd 2437 9a3e 4739 053e
00000060: f274 9abe 5844 c23d ec3d 17bd 4aca 713e
00000070: f846 66be 5072 ecbd 29dd 50be ab76 aabe
00000080: b44d 3cbb 86a1 a93e 98d0 1d3e f913 cd3e
00000090: f66a 26be e6d9 913d 7544 83be 4965 1d3c
000000a0: ed94 a23e d061 0d3e b841 b3bc 2f30 8f3e
000000b0: c688 b1be 695b 523e e5b3 56be 091f 123e
000000c0: 2aaf a23e 7524 c23c 91aa 4d3d 9306 b0be
000000d0: 7bee 263e fc01 e73e 1251 babe cbb5 8abe
000000e0: 9eee 88be 7adf 2bbe af43 9f3e a4c5 8a3e
000000f0: 21fd 8bbe a196 973e 1b21 2ebe 2514 cc3d
00000100: 46c9 98bd b52a 93bd 3f5d 92be 80e1 41be
00000110: 41a5 bb3e 1e46 92be d2a9 a83e db6f b9be
00000120: 3508 933d e7ab 24be 3a41 cfbe 8fc7 95be
00000130: f1c8 3a3d e570 f43d 9791 83bd 4896 123e
00000140: 9275 9abe c881 b4bd 7b42 fb3d 6513 b8bd
00000150: c3b0 90be c6a7 e3be 2913 743e d1ef 8dbe
00000160: 27f2 6f3e f374 4e3d 44ad 563e cfba 113e
00000170: aa1b cd3e 03cb 24be 2ffd a9be c3ab 5bbe
00000180: ea3c 24be 919f 71be 26a1 8a3e cc34 2f3e
00000190: 872d fabd f044 973e 42b2 723d c586 cf3d
000001a0: 48f2 4ebe e37b bf3e 401e c63d b9a9 d93e
000001b0: 4dcc 0cbe b638 fcbc 1cff 11bd bacd 83be
000001c0: d04b a7be 16a3 7b3e 1cd4 a3bd bd0c 20be
000001d0: 4b55 86be 8314 80be f050 293e ebc4 d6be
000001e0: 2cce c73d 04f5 04be c9ed af3d 816c cfbe
000001f0: 3f51 373e 215c 5fbe eab9 213e 33ea 8fbd
00000200: 882b b03e d596 c0bd 2fc4 9a3e d75e 64be
00000210: 7ace 20be 8323 bbbd ee45 89bd 029a cc3e
00000220: 8495 aebd e553 00be 518e 8b3e 0074 23be
00000230: 55e4 883e 09c6 8c3e d13e f23b aa53 a8be
00000240: 81db a83e 7859 7b3e 1b7e a8bc e983 8a3c
00000250: 5b48 bfbe aa21 093e 8998 aebe 9569 4ebe
00000260: 1a0d ba3e 4ccd ab3d 2b96 ad3e 9d89 913d
00000270: cafd bbbd f657 803d a382 79be db19 e8bd
00000280: 4814 aabd dac5 863d 4bac 65be 50be bebe
00000290: 640c 983e cfe3 00be 7863 c1be f2d2 e2bd
000002a0: df7f 1f3e d049 77be e233 833d ec0b 86be
000002b0: a233 003d 35be 943e cddd 69be 0cc4 713e
000002c0: 4a96 2e3e 06eb 98bc 08b8 a33e 3bb5 fb3d
000002d0: f9f0 a1be 213f 24be 1ba7 bbbe a529 9a3e
000002e0: 387b 583c 4f61 dcbd f641 86be cca7 e739
000002f0: 2812 48be ced7 ab3e abb4 0cbc 6b51 b1bc
00000300: 1707 4abe 85d8 243e cf22 9abe 0ba2 8dbe
00000310: 0452 a43d bfd9 bfbe ca72 d7bd 7317 1cbc
00000320: 9b32 a0be 9f54 763d 19f8 80be 0dbf e1be
00000330: 9525 b83e 52d8 1dbe 1ead 59be fe10 063e
00000340: 2e36 40be 1d46 923e 2f0d a33e 49a4 e23d
00000350: e462 363d 7f13 f53b 88df 603e f5cb 9f3e
00000360: 79f5 9b3e 33b0 1d3e f5f4 12be a1cd b0be
00000370: d837 86be fe19 dd3e f8d0 2abe ac60 f9ba
00000380: b70f 89be 2467 89be 5ac3 cfbe 58e9 453c
00000390: c504 8f3e 8edf 89bd fc6d 78be 6749 eb3d
000003a0: 2b53 09be ec63 a4bd 344a 273e 7db3 5dbe
000003b0: 9fa8 8abe 321e d23e 1dac 29be 083f 2b3e
000003c0: b424 83be f007 91be 655b 05bd a58c c23d
000003d0: 0f10 bb3e 5922 373e 0783 bc3e ebd5 b0be
000003e0: 4859 8a3e db5f b43e 5e60 bd3e a0cf c03e
000003f0: 4933 033e 7b6e d13d 0f66 8a3e 40dd 73be
-0.36447042 -0.3349801 -0.026177928 -0.03968401 0.34864768 -0.053748544 0.40298998 -0.042831022
0.10757394 0.21323848 -0.17322494 -0.16402346 0.023144748 -0.43942034 0.41585413 -0.3277956
-0.39067036 -0.12599388 0.011053621 0.024550973 0.1841139 -0.088737816 0.30120194 0.13010131
-0.30167347 0.09485692 -0.036924288 0.23612323 -0.2248801 -0.11545241 -0.20396866 -0.3329366
-0.0028732838 0.33131045 0.15411603 0.400543 -0.1625174 0.07121639 -0.25638166 0.009606668
0.31754246 0.13806844 -0.021881923 0.2796645 -0.34674662 0.20542683 -0.20967062 0.14269651
0.31774265 0.023699025 0.050211493 -0.34380016 0.1630191 0.451187 -0.36389977 -0.27091822
-0.2674455 -0.16784468 0.31106326 0.27103913 -0.2734156 0.29607108 -0.17004816 0.0996478
-0.07460265 -0.0718588 -0.28586766 -0.18933678 0.36649516 -0.2856912 0.32942063 -0.3621815
0.071793 -0.160812 -0.4047945 -0.29253814 0.04560179 0.119355954 -0.064242534 0.1431514
-0.30167824 -0.08813816 0.122685395 -0.08988074 -0.28259858 -0.44463938 0.23835434 -0.27722028
0.23432218 0.0504045 0.20964533 0.14231418 0.40060169 -0.16093068 -0.33200976 -0.2145224
-0.16038862 -0.23596026 0.27076072 0.17109984 -0.12215715 0.29544783 0.05925203 0.10133127
-0.2020961 0.37399206 0.096737385 0.425123 -0.1374981 -0.03078876 -0.035643682 -0.25742894
-0.32675028 0.24573931 -0.07999441 -0.1562986 -0.26236948 -0.2501565 0.16534781 -0.4194711
0.09756121 -0.12984091 0.08590276 -0.4051247 0.17902087 -0.21812488 0.15793577 -0.07027092
0.34408212 -0.09403769 0.302278 -0.22301804 -0.15703765 -0.09137633 -0.06702791 0.3996125
-0.085246116 -0.12532003 0.27257016 -0.15962219 0.26736704 0.2749484 0.007392742 -0.3287633
0.32979968 0.24545848 -0.020567944 0.016908603 -0.3735989 0.13391748 -0.3410075 -0.20157464
0.3633812 0.08388767 0.33903632 0.07106326 -0.09179266 0.06266777 -0.2436624 -0.113330565
-0.083046496 0.06580706 -0.22429006 -0.37254572 0.29696953 -0.12586902 -0.377712 -0.11075391
0.15576123 -0.24149251 0.0640638 -0.2618097 0.03129924 0.29051366 -0.22838517 0.23609942
0.17049518 -0.018666755 0.31976342 0.12290426 -0.3162916 -0.16039707 -0.3665093 0.30109897
0.013212971 -0.10760748 -0.262222 0.00044184772 -0.19538176 0.33563083 -0.0085879965 -0.021645268
-0.19729267 0.1609822 -0.30104682 -0.2766269 0.08023456 -0.37470815 -0.10519941 -0.009527075
-0.3128861 0.060139295 -0.25189283 -0.44091073 0.35966173 -0.15414551 -0.21257445 0.1309242
-0.18770668 0.28569117 0.31845996 0.11066491 0.044527903 0.0074791308 0.2196027 0.31210294
0.30460718 0.15399246 -0.14351256 -0.34531882 -0.2621448 0.43183893 -0.16681278 -0.0019026003
-0.26769802 -0.26836503 -0.4057873 0.012079559 0.27933326 -0.06732093 -0.24260706 0.1148861
-0.13410632 -0.08026871 0.163369 -0.216505 -0.27081773 0.41038662 -0.16569562 0.16723263
-0.2561394 -0.28326368 -0.032557864 0.09499482 0.3653569 0.17884196 0.36818716 -0.34538206
0.2702124 0.35229382 0.36987585 0.37658405 0.12812532 0.102261506 0.2703099 -0.23814869

fc1.bias f4 [64]
00000000: 9afe 5fbe f904 a73e 5333 b93e 4b1a 82be
00000010: 2356 afbd 8dd6 9a3e 5e61 08be 096b 2abe
00000020: 93a7 483c 93f1 093e 7906 a73e c71b f6bd
00000030: cf8b 223e b553 8ebd 5bcb c13e 11dd af3e
00000040: c441 f13c 963f 87bd 324a 5b3c 44c8 4d3e
00000050: fb9c 73be 39be 863e 12b4 c23e a948 9bbd
00000060: 69c2 acbd 3133 3c3e b639 5f3e 4046 a33c
00000070: 13a8 053e 5315 893e 94ba bdbc 6f18 03be
00000080: 4b6e 9d3d 6876 8d3c 3c97 ac3d 4b7b c43e
00000090: 887e a4bd 266c 10be ead0 b63e 9e00 eabd
000000a0: 8dff ad3e 93d1 de3e 5bd4 34be 864e bbbb
000000b0: 2bce 71bd b399 47be 7d5f 1abe 4545 15bc
000000c0: a9fd 313e de21 a83c e82d 223e c564 ac3e
000000d0: 25c0 b93e 9388 823e c536 b33e fc96 65be
000000e0: e0e8 293e de6e 55bc ce14 e83c 434d ed3d
000000f0: 1bc3 253e 4bdc bc3d 972c 3dbe f21b 933e
-0.21874467 0.3262098 0.3617197 -0.25410685 -0.08561351 0.30241814 -0.13318393 -0.16642393
0.012246984 0.1347106 0.32622126 -0.12017017 0.15873645 -0.069495596 0.3785046 0.34348348
0.029450305 -0.06603925 0.013384389 0.20095927 -0.23790352 0.26317003 0.38028008 -0.07582218
-0.08435518 0.18378903 0.21799359 0.019930959 0.13052396 0.26774082 -0.023160256 -0.1280229
0.07687052 0.017268375 0.08427283 0.38375315 -0.080319464 -0.14103755 0.35706264 -0.11425899
0.33984032 0.43519267 -0.17659132 -0.005716148 -0.059034508 -0.19492225 -0.15075488 -0.009110753
0.1738192 0.020523962 0.15837824 0.3367063 0.36279407 0.25494823 0.35002723 -0.22420877
0.16592741 -0.013026921 0.028330233 0.11587002 0.16187708 0.09221705 -0.18474041 0.28732258

fc2.weight f4 [32, 64]
00000000: 1bf8 d13d d229 7b3d d76d ddbb ccdf d2bd
00000010: 050e 0cbe ecbc 703d 7fe5 c2bd 33a6 33bc
00000020: 1b06 123e 1538 8a3d 0ad1 993c 1049 91bc
00000030: 9e8c d1bd 1a22 d0b9 fe75 013e 5bd5 323e
00000040: f9ce d7bd ec13 cdbb 930e 1fbd 7d58 083d
00000050: 4afb bf3c c2ff c1bc d8cf 8c3d ba90 14be
00000060: a3d8 443d ffa9 963d 5b61 02bd bbf1 a4bd
00000070: 98bd e63d fb28 89bc 8f7e 753d 57ea d8bc
00000080: 6621 5fbc d9da 1dbe 3d7f 41bd 95ca bf3c
00000090: ce97 f2bc 7f97 5c3d a618 353d a33d 2f3e
000000a0: d8b5 aabc b6f9 46bc 00bb 7f3d 2603 58bc
000000b0: 7ad8 13be f178 c83d 7f2d 543c 8345 06be
000000c0: e4a5 a3bd 3f2a a3bd 9bf4 543d 2346 6ebd
000000d0: aeb5 3c3e ec11 243d f304 a73d 8bb7 093d
000000e0: 6a93 da3d 8863 313e 1a99 62bb 74fb b83d
000000f0: d270 623b c36b 343e 039c 043e 64f2 9e3b
00000100: 880a 013c 1a19 7a3d 8a3d e6ba 6d98 27bd
00000110: 4574 8d3d 9d22 2b3d 36df 423e 2527 0d3e
00000120: e90e 02be f4a9 8f3d 7155 acbd 9665 ad3b
00000130: 03f4 1f3d c954 223e edb8 483d 594b 78bd
00000140: 4fec 203d 862f 1a3d 3de9 c53d c91d 88bc
00000150: f3ce 333d 43be 72bc 668a 243e fbd2 2c3b
00000160: f8df bebd 8867 42bd 96ed 3f3e fa80 e83d
00000170: e29a c9ba b9f4 123d 9d48 893b d176 d03d
00000180: e496 8d3d 40de 41bc 0d66 a5bd 6d5b 3bbd
00000190: 75d5 15bd 44aa d23d 888f b33d 9c86 493b
000001a0: 1932 c5bd f205 87bc c25c 0c3e 3e17 ffbd
000001b0: b722 923d 237a 043d 618f 093e 1c93 263e
000001c0: 76fc ac3c 561a e2bb a689 f5bd 3a06 41bb
000001d0: b3cb 77bc acec 433e 0361 153d 9558 14be
000001e0: 650d 2b3d add0 8a3d f244 113b 739b 0b3e
000001f0: d77f 143e b5fd 5f3d 0ad1 d1bc 5b54 64bd
00000200: 4dbe 623d 7a1f 6abd df0f 5fbd 4280 103e
00000210: 50ae a03c 8a4e d63d fc22 b33d 8446 37bd
00000220: 0d09 a8bd fade b5bc 4c52 c3bd 7482 5c3d
00000230: 394b f63d f1d3 da3c 1067 9fbc 9a92 223d
00000240: 4808 d43d 1334 593d 627e 333e 354a 363e
00000250: 7e89 0f3e 9b50 8a3d f20a 593d 9b61 893d
00000260: f5e2 8f3d ca53 833d 4455 16bc 15df 043d
00000270: 5241 213e 346f 3b3e 8d51 71bd 08ff 2d3e
00000280: 7338 9ebc b502 ba3d 2d66 083d fd14 993d
00000290: 6f2d 8dbc 6d53 743c 5f61 ba3d 4de3 bd3d
000002a0: da92 783d 0a83 063e a13b 2f3e 9940 8d3c
000002b0: b93b 0d3e 8d7a 29be 0288 c73c b610 063e
000002c0: 816a fb3d 2184 d5bc 9165 11be f9cb 013e
000002d0: 7529 c33b dd55 6dbc aeb1 febd 3015 b8bd
000002e0: 6e93 873d 56af 96bb 7e00 14bd f66b 343d
000002f0: 5b7a 203e d306 8f3d 8f10 0cbc 7bbe 26be
00000300: 66c6 2ebd d218 823d f2e6 273e 513c 393d
00000310: a80d fabb 54bb 78bd 1196 96bd d9ec 03bd
00000320: 7a69 393e 274f 263e 97fd 423d ed3a bf3d
00000330: f817 1cbd 881d 76bc 8415 183c ed73 1c3e
00000340: 062e 3c3d f1b2 0f3e aba8 90bd 5a7f a63d
00000350: db82 e83d c8d0 1cbe 6b36 09be a2a6 a8bd
00000360: 118c 293e 090c 883d 5e68 37bd 7610 8ebd
00000370: bc97 9e3d 757d b1bc 23d6 f73d 48d0 403c
00000380: b1cf 373e 5a95 c4bd 7009 90bd 7d74 e0bc
00000390: 5dd8 32bd 9608 bb3d 5aa6 c0bd 70fe 4a3e
000003a0: 5e5f f63d b63b b03d 24cb e63c f540 e33d
000003b0: 2ec8 c2bd 03cc e13d 630c 003e 74d0 d6bd
000003c0: 6c39 8abc a305 0d3d 71e7 0a3d b674 793d
000003d0: 8d91 d23d 9ba5 62bd 5e4a a23d 733c 813d
000003e0: 0f91 29bd 46f1 0d3d e84a 093e e5aa 593d
000003f0: b8f8 ea3d e8c6 003e bf53 513d 81db 163e
0.102524005 0.06131918 -0.0067574787 -0.10296592 -0.13677223 0.05877392 -0.09516429 -0.010964918
0.14260142 0.06748978 0.018776435 -0.017735034 -0.10231899 -0.0003969826 0.12642667 0.17464201
-0.10537524 -0.0062584784 -0.03883226 0.033287514 0.023435254 -0.023681525 0.068755805 -0.14508334
0.048058163 0.07356643 -0.031831127 -0.08053919 0.11266631 -0.016743174 0.05993515 -0.02647893
-0.013618803 -0.15415515 -0.047240485 0.023412028 -0.029613402 0.053855415 0.04421296 0.17113356
-0.020838663 -0.012144497 0.062434196 -0.013184344 -0.14438048 0.09788693 0.0129503 -0.13112454
-0.079906255 -0.07967042 0.051991086 -0.058172356 0.1842868 0.040056154 0.08155241 0.033622306
0.10672648 0.17323124 -0.003457612 0.09032336 0.003455211 0.17619233 0.12950139 0.0048506726
0.007876046 0.061059095 -0.0017565947 -0.04091685 0.06906942 0.041781057 0.1903046 0.13784464
-0.12701 0.07014838 -0.08414734 0.005291651 0.039051067 0.15852655 0.049004484 -0.060618732
0.03928786 0.037642978 0.09663627 -0.016615765 0.043898534 -0.01481587 0.1606842 0.0026370871
-0.093200624 -0.047462016 0.18742976 0.11352725 -0.0015381242 0.035877917 0.0041895644 0.101789124
0.06913546 -0.011832774 -0.08076105 -0.045741487 -0.03658052 0.10286382 0.08767611 0.00307504
-0.09628696 -0.016482327 0.1370726 -0.12455605 0.071355276 0.03234304 0.13433601 0.16267055
0.021116477 -0.006900112 -0.11989145 -0.0029453174 -0.015124249 0.19133252 0.03646947 -0.14486916
0.04176082 0.06778083 0.0022166339 0.13633518 0.14501892 0.054685313 -0.025612373 -0.05574451
0.055357266 -0.057158925 -0.054458495 0.14111426 0.019614369 0.10464199 0.08746907 -0.044744983
-0.08204851 -0.02220105 -0.09537181 0.053835347 0.12026066 0.02671239 -0.019458324 0.03969059
0.10353142 0.053028177 0.1752868 0.17801745 0.14017293 0.067536555 0.052988954 0.0670807
0.070257105 0.06412466 -0.009175602 0.03243931 0.15747574 0.1830414 -0.058915664 0.16991818
-0.019314026 0.090825476 0.033300567 0.07474706 -0.017233578 0.014912468 0.09100603 0.0927187
0.060686924 0.13135925 0.1711259 0.017242717 0.13792314 -0.16550656 0.024356846 0.13092312
0.122761734 -0.02606398 -0.14198901 0.12675466 0.00595587 -0.014485803 -0.124362335 -0.08988416
0.06619917 -0.0045985384 -0.036133282 0.044048272 0.15671675 0.069837235 -0.00854887 -0.162836
-0.042669676 0.0635239 0.16396692 0.045223538 -0.0076310225 -0.060725525 -0.07352842 -0.032208297
0.18106642 0.16241132 0.047605123 0.09337411 -0.038108796 -0.015021689 0.0092824735 0.15278597
0.04594233 0.14033104 -0.07063421 0.08129759 0.11353084 -0.15314019 -0.13399665 -0.08234908
0.16557337 0.066429205 -0.044777267 -0.069367334 0.07743785 -0.021666268 0.1210139 0.011768408
0.17950322 -0.09598799 -0.0703305 -0.027399296 -0.04366337 0.09132497 -0.09406729 0.19823623
0.120299086 0.08605139 0.028173037 0.11096374 -0.095108375 0.1102524 0.12504725 -0.10488978
-0.016873084 0.034429204 0.033912126 0.06090232 0.10281668 -0.055333715 0.07924341 0.06310358
-0.041398104 0.034653924 0.1340748 0.053141493 0.114732206 0.12575877 0.051105257 0.14732172

fc2.bias f4 [32]
00000000: b73b 433d 68c5 243d 0bcb 003c e185 893c
00000010: 6a18 8a3d a6de 133e e30f 023e 9e44 463e
00000020: 6b86 963d 51a5 5f3e 54d6 d43b 2533 583d
00000030: aada b9bb fcb9 47bc 4395 343e 8581 1c3e
00000040: f021 943d 91df 11bd bc4f 253e 4d95 f83d
00000050: b0a5 41bd c765 ce3d 8ab8 fbbb cb0d c4bc
00000060: 24cc d43c 240c 123e 3a08 213e 079f fa3d
00000070: d734 123e 9822 ae3d a09b 9a3d ab0c 4b3e
0.04766437 0.040227324 0.007860909 0.016787471 0.06742938 0.14440402 0.12701373 0.19362113
0.07349857 0.21840407 0.0064952765 0.05278315 -0.0056718187 -0.012190338 0.17635064 0.15283783
0.072330356 -0.0356136 0.16143698 0.12137852 -0.047277153 0.10078006 -0.007681911 -0.023932358
0.025976248 0.14262444 0.15725794 0.12237363 0.1427797 0.08502692 0.07549214 0.19829051

fc3.weight f4 [1, 32]
00000000: 4e73 09be 1d1f 2d3e 8b83 433e f4d0 81be
00000010: c9a7 dd3d 738e f0bd 5106 063e 8698 44be
00000020: 1bd8 f8bd f3dc d93d 013f 46be b064 e0bd
00000030: d1cf 1a3b 87a1 6a3e 03c2 193e 6bd3 4dbe
00000040: a274 5d3e aff0 763e eca4 f3bd 7bdf 61be
00000050: 7b18 00be ac3e c7bd ac9e c43d 7cf1 303e
00000060: 19e7 cdbd b356 5b3e d60e fcbd 731b 5b3e
00000070: b6c4 05be 493c cc3d c0c7 673e 0386 1f3e
-0.13422891 0.169064 0.19093148 -0.2535473 0.10823018 -0.1174592 0.13088347 -0.19198808
-0.12150594 0.10637846 -0.19359972 -0.109567046 0.0023622403 0.2291318 0.15015416 -0.20100181
0.21626523 0.24115251 -0.11896691 -0.22057907 -0.12509339 -0.097287506 0.09600577 0.17279619
-0.10053844 0.21419792 -0.12307517 0.2139719 -0.1306332 0.09972436 0.22634792 0.15578465
